model_quant.tflite (tflite, 229160 bytes, 6 tensors)

sequential/dense_2/MatMul i1 [5, 16] scale=0.014094039 zero_point=0
0	0xe9	-0.3241629
1	0xd4	-0.6201377
2	0xdb	-0.5214794
3	0xf1	-0.21141058
4	0x13	0.26778674
5	0x0c	0.16912846
6	0xc0	-0.9020185
7	0xef	-0.23959866
8	0x81	-1.789943
9	0xfc	-0.056376155
10	0xd1	-0.66241986
11	0x9e	-1.3812158
12	0xe7	-0.35235098
13	0x1b	0.38053906
14	0xff	-0.014094039
15	0x9b	-1.4234979
16	0xdd	-0.49329135
17	0x0d	0.1832225
18	0xe2	-0.42282116
19	0xfb	-0.07047019
20	0xaa	-1.2120874
21	0x9b	-1.4234979
22	0xd2	-0.6483258
23	0xe0	-0.45100924
24	0x0d	0.1832225
25	0x0b	0.15503442
26	0xd5	-0.6060437
27	0x0c	0.16912846
28	0xe5	-0.38053906
29	0xea	-0.31006885
30	0xe6	-0.366445
31	0xf0	-0.22550462
32	0xd8	-0.56376153
33	0xd6	-0.59194964
34	0xf2	-0.19731654
35	0xa2	-1.3248397
36	0xd9	-0.54966754
37	0x9e	-1.3812158
38	0x06	0.08456423
39	0xc2	-0.87383044
40	0xfb	-0.07047019
41	0xc9	-0.7751721
42	0x31	0.6906079
43	0xfb	-0.07047019
44	0xdb	-0.5214794
45	0xc8	-0.78926617
46	0xb0	-1.1275231
47	0x17	0.3241629
48	0xec	-0.28188077
49	0xfd	-0.042282116
50	0xca	-0.7610781
51	0x10	0.22550462
52	0xf1	-0.21141058
53	0xec	-0.28188077
54	0x06	0.08456423
55	0x1c	0.39463308
56	0xcb	-0.74698406
57	0xca	-0.7610781
58	0xb4	-1.071147
59	0xcb	-0.74698406
60	0xe8	-0.33825693
61	0xe7	-0.35235098
62	0x09	0.12684634
63	0xd6	-0.59194964
64	0x25	0.5214794
65	0xc9	-0.7751721
66	0x22	0.47919732
67	0xd6	-0.59194964
68	0xf6	-0.14094038
69	0xfd	-0.042282116
70	0x05	0.07047019
71	0xde	-0.47919732
72	0xc8	-0.78926617
73	0x06	0.08456423
74	0xd8	-0.56376153
75	0xdb	-0.5214794
76	0x27	0.54966754
77	0xd5	-0.6060437
78	0xed	-0.26778674
79	0xe5	-0.38053906

sequential/dense_1/MatMul i1 [16, 32] scale=0.006500385 zero_point=0
0	0x35	0.3445204
1	0x01	0.006500385
2	0xe1	-0.20151193
3	0x20	0.20801231
4	0x1b	0.17551039
5	0x4e	0.50703
6	0x0f	0.09750577
7	0xfe	-0.01300077
8	0x21	0.21451269
9	0xd7	-0.26651576
10	0x00	0.0
11	0x1c	0.18201077
12	0x12	0.11700693
13	0x38	0.36402154
14	0xff	-0.006500385
15	0x0f	0.09750577
16	0xf8	-0.05200308
17	0xdd	-0.22751346
18	0xfc	-0.02600154
19	0xd1	-0.3055181
20	0x27	0.253515
21	0xe5	-0.17551039
22	0x00	0.0
23	0x33	0.33151963
24	0xe2	-0.19501154
25	0x13	0.12350731
26	0xd4	-0.28601694
27	0xfe	-0.01300077
28	0x1c	0.18201077
29	0xc3	-0.39652348
30	0xe0	-0.20801231
31	0xd5	-0.27951655
32	0x04	0.02600154
33	0x78	0.78004616
34	0xf4	-0.07800461
35	0xed	-0.12350731
36	0xd6	-0.27301615
37	0xcc	-0.33802
38	0xe6	-0.16901
39	0xdf	-0.21451269
40	0xec	-0.1300077
41	0x11	0.11050654
42	0xdc	-0.23401386
43	0xfe	-0.01300077
44	0x1e	0.19501154
45	0xc8	-0.36402154
46	0x0c	0.07800461
47	0x2f	0.3055181
48	0x7c	0.80604774
49	0x10	0.10400616
50	0x07	0.045502692
51	0xe1	-0.20151193
52	0x22	0.22101308
53	0xde	-0.22101308
54	0x1d	0.18851116
55	0x09	0.058503464
56	0x29	0.26651576
57	0x1b	0.17551039
58	0x0a	0.06500385
59	0xfd	-0.019501153
60	0xd0	-0.31201845
61	0x05	0.032501925
62	0x19	0.16250962
63	0xe9	-0.14950885
64	0x0c	0.07800461
65	0xd2	-0.2990177
66	0xe1	-0.20151193
67	0xf9	-0.045502692
68	0x2c	0.28601694
69	0x48	0.4680277
70	0x06	0.039002307
71	0x2a	0.27301615
72	0xfe	-0.01300077
73	0xbf	-0.42252502
74	0x16	0.14300847
75	0xf7	-0.058503464
76	0xe0	-0.20801231
77	0x3f	0.40952423
78	0xd4	-0.28601694
79	0x2e	0.2990177
80	0xda	-0.24701463
81	0x06	0.039002307
82	0xf8	-0.05200308
83	0x01	0.006500385
84	0x34	0.33802
85	0xe0	-0.20801231
86	0xe1	-0.20151193
87	0xed	-0.12350731
88	0x0d	0.084505
89	0xdf	-0.21451269
90	0x21	0.21451269
91	0x1d	0.18851116
92	0x26	0.24701463
93	0xcc	-0.33802
94	0xd0	-0.31201845
95	0xd6	-0.27301615
96	0x04	0.02600154
97	0x0a	0.06500385
98	0xbb	-0.44852656
99	0x04	0.02600154
100	0x24	0.23401386
101	0xfc	-0.02600154
102	0xca	-0.35102078
103	0xf2	-0.091005385
104	0xd6	-0.27301615
105	0x59	0.57853425
106	0x02	0.01300077
107	0x11	0.11050654
108	0xe7	-0.16250962
109	0xf0	-0.10400616
110	0x43	0.43552577
111	0xdb	-0.24051423
112	0x08	0.05200308
113	0xcf	-0.31851885
114	0x27	0.253515
115	0x38	0.36402154
116	0xe0	-0.20801231
117	0xcb	-0.3445204
118	0xcf	-0.31851885
119	0x32	0.32501924
120	0x30	0.31201845
121	0x0e	0.091005385
122	0x34	0.33802
123	0xec	-0.1300077
124	0xcc	-0.33802
125	0x17	0.14950885
126	0xf0	-0.10400616
127	0xb3	-0.50052965
128	0xf2	-0.091005385
129	0xdb	-0.24051423
130	0x64	0.6500385
131	0x0e	0.091005385
132	0xf0	-0.10400616
133	0xdb	-0.24051423
134	0x0d	0.084505
135	0x15	0.13650808
136	0xe2	-0.19501154
137	0xe4	-0.18201077
138	0xf2	-0.091005385
139	0xe1	-0.20151193
140	0x27	0.253515
141	0xd3	-0.2925173
142	0xe2	-0.19501154
143	0x1e	0.19501154
144	0xd9	-0.253515
145	0xd0	-0.31201845
146	0xd6	-0.27301615
147	0x22	0.22101308
148	0xd0	-0.31201845
149	0xe3	-0.18851116
150	0x1b	0.17551039
151	0x1b	0.17551039
152	0x02	0.01300077
153	0x17	0.14950885
154	0x2d	0.2925173
155	0x33	0.33151963
156	0x1f	0.20151193
157	0x07	0.045502692
158	0x1a	0.16901
159	0x68	0.67604
160	0x24	0.23401386
161	0xd5	-0.27951655
162	0x67	0.66953963
163	0x28	0.2600154
164	0x2b	0.27951655
165	0x07	0.045502692
166	0x12	0.11700693
167	0xfe	-0.01300077
168	0xe9	-0.14950885
169	0xf4	-0.07800461
170	0x0c	0.07800461
171	0x1d	0.18851116
172	0x2d	0.2925173
173	0x08	0.05200308
174	0xf3	-0.084505
175	0xeb	-0.13650808
176	0xcb	-0.3445204
177	0x0c	0.07800461
178	0xe7	-0.16250962
179	0xeb	-0.13650808
180	0x17	0.14950885
181	0xe8	-0.15600923
182	0x09	0.058503464
183	0xf7	-0.058503464
184	0x30	0.31201845
185	0xed	-0.12350731
186	0x29	0.26651576
187	0x06	0.039002307
188	0x00	0.0
189	0x04	0.02600154
190	0xda	-0.24701463
191	0x7c	0.80604774
192	0xcf	-0.31851885
193	0xc6	-0.37702233
194	0xd6	-0.27301615
195	0xf0	-0.10400616
196	0x2f	0.3055181
197	0x2a	0.27301615
198	0x04	0.02600154
199	0x16	0.14300847
200	0x26	0.24701463
201	0x29	0.26651576
202	0xec	-0.1300077
203	0x1e	0.19501154
204	0xea	-0.14300847
205	0x25	0.24051423
206	0x21	0.21451269
207	0xf2	-0.091005385
208	0xd1	-0.3055181
209	0x2f	0.3055181
210	0xf5	-0.071504235
211	0x14	0.1300077
212	0xd5	-0.27951655
213	0x38	0.36402154
214	0x2a	0.27301615
215	0x07	0.045502692
216	0xe4	-0.18201077
217	0xfa	-0.039002307
218	0xd3	-0.2925173
219	0x00	0.0
220	0x20	0.20801231
221	0xfa	-0.039002307
222	0xfe	-0.01300077
223	0xcb	-0.3445204
224	0x26	0.24701463
225	0xed	-0.12350731
226	0xc1	-0.40952423
227	0xe8	-0.15600923
228	0x05	0.032501925
229	0xed	-0.12350731
230	0xbe	-0.42902538
231	0x07	0.045502692
232	0xd6	-0.27301615
233	0x4d	0.50052965
234	0x35	0.3445204
235	0x1b	0.17551039
236	0x1b	0.17551039
237	0xd5	-0.27951655
238	0x37	0.35752118
239	0xd1	-0.3055181
240	0xd8	-0.2600154
241	0x12	0.11700693
242	0x23	0.22751346
243	0x08	0.05200308
244	0xcf	-0.31851885
245	0xe3	-0.18851116
246	0x15	0.13650808
247	0x34	0.33802
248	0x14	0.1300077
249	0x02	0.01300077
250	0xd3	-0.2925173
251	0x2d	0.2925173
252	0xf3	-0.084505
253	0x12	0.11700693
254	0xd9	-0.253515
255	0xd1	-0.3055181

sequential/dense/MatMul i1 [32, 6272] scale=0.004770767 zero_point=0
0	0x02	0.009541534
1	0xfc	-0.019083068
2	0xf9	-0.03339537
3	0xfa	-0.028624602
4	0x05	0.023853835
5	0xfb	-0.023853835
6	0x02	0.009541534
7	0x01	0.004770767
8	0x02	0.009541534
9	0x01	0.004770767
10	0xfc	-0.019083068
11	0xfc	-0.019083068
12	0xf9	-0.03339537
13	0x04	0.019083068
14	0x01	0.004770767
15	0x01	0.004770767
16	0x06	0.028624602
17	0x05	0.023853835
18	0xfa	-0.028624602
19	0x02	0.009541534
20	0xfb	-0.023853835
21	0x03	0.014312301
22	0xfd	-0.014312301
23	0x01	0.004770767
24	0xfa	-0.028624602
25	0xfb	-0.023853835
26	0xff	-0.004770767
27	0xfe	-0.009541534
28	0xfa	-0.028624602
29	0xfa	-0.028624602
30	0x03	0.014312301
31	0xfc	-0.019083068
32	0xfd	-0.014312301
33	0xff	-0.004770767
34	0x04	0.019083068
35	0xff	-0.004770767
36	0x00	0.0
37	0xfb	-0.023853835
38	0x03	0.014312301
39	0xff	-0.004770767
40	0x04	0.019083068
41	0x04	0.019083068
42	0x02	0.009541534
43	0x01	0.004770767
44	0xfe	-0.009541534
45	0xff	-0.004770767
46	0xfc	-0.019083068
47	0xff	-0.004770767
48	0xfa	-0.028624602
49	0x04	0.019083068
50	0xfe	-0.009541534
51	0xfe	-0.009541534
52	0xfa	-0.028624602
53	0x00	0.0
54	0xfe	-0.009541534
55	0xfe	-0.009541534
56	0x04	0.019083068
57	0xfa	-0.028624602
58	0xfc	-0.019083068
59	0x00	0.0
60	0x02	0.009541534
61	0xfd	-0.014312301
62	0xfe	-0.009541534
63	0xff	-0.004770767
64	0xfe	-0.009541534
65	0xfb	-0.023853835
66	0xfa	-0.028624602
67	0x04	0.019083068
68	0xff	-0.004770767
69	0xfd	-0.014312301
70	0x03	0.014312301
71	0x05	0.023853835
72	0xfe	-0.009541534
73	0xfd	-0.014312301
74	0x00	0.0
75	0xff	-0.004770767
76	0xf8	-0.038166136
77	0xfd	-0.014312301
78	0xfc	-0.019083068
79	0x03	0.014312301
80	0xfc	-0.019083068
81	0x00	0.0
82	0x04	0.019083068
83	0xfa	-0.028624602
84	0x05	0.023853835
85	0xff	-0.004770767
86	0xff	-0.004770767
87	0x06	0.028624602
88	0x06	0.028624602
89	0x05	0.023853835
90	0xfb	-0.023853835
91	0x03	0.014312301
92	0x06	0.028624602
93	0xff	-0.004770767
94	0xf8	-0.038166136
95	0x03	0.014312301
96	0xf8	-0.038166136
97	0xff	-0.004770767
98	0x04	0.019083068
99	0xfe	-0.009541534
100	0xfe	-0.009541534
101	0x04	0.019083068
102	0xfd	-0.014312301
103	0xff	-0.004770767
104	0x01	0.004770767
105	0xfa	-0.028624602
106	0xfd	-0.014312301
107	0x05	0.023853835
108	0xfc	-0.019083068
109	0x00	0.0
110	0xff	-0.004770767
111	0xfd	-0.014312301
112	0x06	0.028624602
113	0x00	0.0
114	0xfe	-0.009541534
115	0xf9	-0.03339537
116	0x00	0.0
117	0x03	0.014312301
118	0xfd	-0.014312301
119	0x06	0.028624602
120	0x00	0.0
121	0xfc	-0.019083068
122	0xff	-0.004770767
123	0x04	0.019083068
124	0x02	0.009541534
125	0x06	0.028624602
126	0x01	0.004770767
127	0xfc	-0.019083068
128	0xfb	-0.023853835
129	0x06	0.028624602
130	0x05	0.023853835
131	0xfb	-0.023853835
132	0xfc	-0.019083068
133	0xff	-0.004770767
134	0x04	0.019083068
135	0xf9	-0.03339537
136	0x03	0.014312301
137	0x04	0.019083068
138	0xfc	-0.019083068
139	0x04	0.019083068
140	0xfe	-0.009541534
141	0x00	0.0
142	0xff	-0.004770767
143	0x02	0.009541534
144	0xfe	-0.009541534
145	0x01	0.004770767
146	0x05	0.023853835
147	0x03	0.014312301
148	0xfb	-0.023853835
149	0xff	-0.004770767
150	0x01	0.004770767
151	0x00	0.0
152	0xfd	-0.014312301
153	0xfd	-0.014312301
154	0xfb	-0.023853835
155	0xf9	-0.03339537
156	0x04	0.019083068
157	0x04	0.019083068
158	0xf8	-0.038166136
159	0xfe	-0.009541534
160	0xfc	-0.019083068
161	0x04	0.019083068
162	0xf8	-0.038166136
163	0xfd	-0.014312301
164	0x05	0.023853835
165	0x02	0.009541534
166	0xfc	-0.019083068
167	0x00	0.0
168	0xfc	-0.019083068
169	0xfb	-0.023853835
170	0x01	0.004770767
171	0xfb	-0.023853835
172	0x05	0.023853835
173	0xfd	-0.014312301
174	0xff	-0.004770767
175	0x01	0.004770767
176	0xff	-0.004770767
177	0x06	0.028624602
178	0xfa	-0.028624602
179	0xfe	-0.009541534
180	0xfb	-0.023853835
181	0xfd	-0.014312301
182	0xfe	-0.009541534
183	0x02	0.009541534
184	0xfe	-0.009541534
185	0xfe	-0.009541534
186	0x04	0.019083068
187	0xfd	-0.014312301
188	0x03	0.014312301
189	0x04	0.019083068
190	0x01	0.004770767
191	0x02	0.009541534
192	0x01	0.004770767
193	0x01	0.004770767
194	0xfe	-0.009541534
195	0xfc	-0.019083068
196	0x04	0.019083068
197	0x00	0.0
198	0x06	0.028624602
199	0x03	0.014312301
200	0x01	0.004770767
201	0xfe	-0.009541534
202	0xfe	-0.009541534
203	0x03	0.014312301
204	0xff	-0.004770767
205	0x01	0.004770767
206	0xf8	-0.038166136
207	0x02	0.009541534
208	0x01	0.004770767
209	0x03	0.014312301
210	0x01	0.004770767
211	0x02	0.009541534
212	0xfe	-0.009541534
213	0xfa	-0.028624602
214	0x02	0.009541534
215	0x00	0.0
216	0xfe	-0.009541534
217	0x03	0.014312301
218	0xfc	-0.019083068
219	0xfe	-0.009541534
220	0xfc	-0.019083068
221	0xfc	-0.019083068
222	0xfc	-0.019083068
223	0x01	0.004770767
224	0x02	0.009541534
225	0xfa	-0.028624602
226	0x01	0.004770767
227	0xfc	-0.019083068
228	0x06	0.028624602
229	0xff	-0.004770767
230	0x05	0.023853835
231	0x00	0.0
232	0xf9	-0.03339537
233	0xfb	-0.023853835
234	0xfb	-0.023853835
235	0x04	0.019083068
236	0xfd	-0.014312301
237	0xfc	-0.019083068
238	0xfd	-0.014312301
239	0x03	0.014312301
240	0xff	-0.004770767
241	0xfe	-0.009541534
242	0xff	-0.004770767
243	0xf8	-0.038166136
244	0xfc	-0.019083068
245	0x02	0.009541534
246	0xff	-0.004770767
247	0xfa	-0.028624602
248	0x06	0.028624602
249	0x01	0.004770767
250	0xff	-0.004770767
251	0xfc	-0.019083068
252	0xfb	-0.023853835
253	0xfc	-0.019083068
254	0xfd	-0.014312301
255	0x05	0.023853835

sequential/conv2d_2/Conv2D i1 [32, 3, 3, 32]
0	0x21	33
1	0xcb	-53
2	0xc4	-60
3	0xe7	-25
4	0xcb	-53
5	0x1c	28
6	0xef	-17
7	0x1a	26
8	0xb7	-73
9	0xd4	-44
10	0xee	-18
11	0x14	20
12	0xf9	-7
13	0x03	3
14	0x26	38
15	0x03	3
16	0xda	-38
17	0x9f	-97
18	0xa8	-88
19	0xba	-70
20	0x1c	28
21	0xe8	-24
22	0xe6	-26
23	0xc7	-57
24	0xe8	-24
25	0xa8	-88
26	0xeb	-21
27	0x0c	12
28	0xdb	-37
29	0xd0	-48
30	0xdb	-37
31	0xfc	-4
32	0x06	6
33	0xf7	-9
34	0xe8	-24
35	0xd4	-44
36	0x02	2
37	0x08	8
38	0xdc	-36
39	0x21	33
40	0xbc	-68
41	0xf9	-7
42	0x10	16
43	0x53	83
44	0x04	4
45	0xf0	-16
46	0xee	-18
47	0x02	2
48	0xfd	-3
49	0xed	-19
50	0xc9	-55
51	0xe3	-29
52	0xed	-19
53	0xeb	-21
54	0xf5	-11
55	0xf7	-9
56	0xe2	-30
57	0xb2	-78
58	0x08	8
59	0x09	9
60	0x03	3
61	0x03	3
62	0xc9	-55
63	0x09	9
64	0x09	9
65	0xe2	-30
66	0xb6	-74
67	0xf3	-13
68	0x08	8
69	0x2c	44
70	0x07	7
71	0xfc	-4
72	0x08	8
73	0xdb	-37
74	0x0d	13
75	0x13	19
76	0x11	17
77	0xf0	-16
78	0x11	17
79	0xde	-34
80	0xff	-1
81	0x00	0
82	0xbc	-68
83	0xd3	-45
84	0xf6	-10
85	0xeb	-21
86	0xf3	-13
87	0xe3	-29
88	0xf6	-10
89	0xba	-70
90	0xf8	-8
91	0x1e	30
92	0x0c	12
93	0x13	19
94	0xd3	-45
95	0x02	2
96	0x08	8
97	0xe9	-23
98	0xda	-38
99	0xbe	-66
100	0xc5	-59
101	0x3f	63
102	0xec	-20
103	0x0b	11
104	0x03	3
105	0x94	-108
106	0xd6	-42
107	0x38	56
108	0x3f	63
109	0xec	-20
110	0x0f	15
111	0xb0	-80
112	0x02	2
113	0x17	23
114	0xb3	-77
115	0xc1	-63
116	0x12	18
117	0x81	-127
118	0xfb	-5
119	0xf9	-7
120	0xd9	-39
121	0xa3	-93
122	0xe8	-24
123	0x25	37
124	0xeb	-21
125	0x2c	44
126	0x0e	14
127	0x0e	14
128	0x42	66
129	0x31	49
130	0xfd	-3
131	0xc4	-60
132	0xf8	-8
133	0x02	2
134	0xff	-1
135	0xfd	-3
136	0xf7	-9
137	0xa7	-89
138	0x14	20
139	0x34	52
140	0x01	1
141	0x23	35
142	0xf6	-10
143	0x21	33
144	0x30	48
145	0x14	20
146	0xdf	-33
147	0x39	57
148	0xe9	-23
149	0xe1	-31
150	0x06	6
151	0x33	51
152	0x36	54
153	0xc5	-59
154	0xf2	-14
155	0xde	-34
156	0x0b	11
157	0x19	25
158	0x10	16
159	0x1d	29
160	0x2c	44
161	0xf8	-8
162	0xfb	-5
163	0xfd	-3
164	0xf9	-7
165	0x4f	79
166	0xfc	-4
167	0xeb	-21
168	0xf9	-7
169	0xb8	-72
170	0xf1	-15
171	0x25	37
172	0x44	68
173	0xf6	-10
174	0xde	-34
175	0x01	1
176	0x23	35
177	0x1d	29
178	0xc5	-59
179	0x23	35
180	0xe8	-24
181	0x0c	12
182	0x00	0
183	0xfc	-4
184	0x21	33
185	0xb8	-72
186	0xf2	-14
187	0x09	9
188	0xde	-34
189	0x38	56
190	0x0d	13
191	0x13	19
192	0xd0	-48
193	0x25	37
194	0xfa	-6
195	0x44	68
196	0xdb	-37
197	0x36	54
198	0xfb	-5
199	0xd9	-39
200	0x1a	26
201	0xc0	-64
202	0xfd	-3
203	0x3c	60
204	0x42	66
205	0x01	1
206	0xf5	-11
207	0xdb	-37
208	0x2c	44
209	0x2d	45
210	0xc8	-56
211	0x0a	10
212	0x0d	13
213	0x9c	-100
214	0xce	-50
215	0x2c	44
216	0xd4	-44
217	0xc7	-57
218	0xf8	-8
219	0xf2	-14
220	0x17	23
221	0x19	25
222	0xfa	-6
223	0x66	102
224	0x64	100
225	0xf1	-15
226	0xeb	-21
227	0x4b	75
228	0xfa	-6
229	0x19	25
230	0x0a	10
231	0xc2	-62
232	0xff	-1
233	0xe4	-28
234	0x17	23
235	0x3c	60
236	0x33	51
237	0x2b	43
238	0xff	-1
239	0x3e	62
240	0x16	22
241	0x08	8
242	0xc8	-56
243	0x3b	59
244	0x12	18
245	0x3a	58
246	0xea	-22
247	0x13	19
248	0x39	57
249	0xcc	-52
250	0xd9	-39
251	0x20	32
252	0xf7	-9
253	0xf7	-9
254	0x1b	27
255	0x0f	15

sequential/conv2d_1/Conv2D i1 [32, 3, 3, 32]
0	0x08	8
1	0xca	-54
2	0x0e	14
3	0x0d	13
4	0xfa	-6
5	0xd2	-46
6	0x24	36
7	0x11	17
8	0xc3	-61
9	0x2d	45
10	0xf2	-14
11	0x20	32
12	0xe1	-31
13	0xcb	-53
14	0x0b	11
15	0xfd	-3
16	0xf4	-12
17	0x22	34
18	0xf6	-10
19	0xdc	-36
20	0x06	6
21	0xe1	-31
22	0xfe	-2
23	0x18	24
24	0xef	-17
25	0x18	24
26	0xfb	-5
27	0xce	-50
28	0x18	24
29	0x05	5
30	0x09	9
31	0x1a	26
32	0x02	2
33	0x0b	11
34	0xf5	-11
35	0xfb	-5
36	0x2f	47
37	0xcd	-51
38	0x0f	15
39	0x04	4
40	0xea	-22
41	0x32	50
42	0xfd	-3
43	0x37	55
44	0xde	-34
45	0xf4	-12
46	0x12	18
47	0x15	21
48	0xe8	-24
49	0x0c	12
50	0x1a	26
51	0x2a	42
52	0x11	17
53	0xf9	-7
54	0xf4	-12
55	0x1a	26
56	0xff	-1
57	0x0e	14
58	0x0a	10
59	0x10	16
60	0xef	-17
61	0xdc	-36
62	0xf0	-16
63	0x21	33
64	0x09	9
65	0x2a	42
66	0xf2	-14
67	0x03	3
68	0x02	2
69	0xad	-83
70	0xff	-1
71	0x11	17
72	0x08	8
73	0xd2	-46
74	0xfe	-2
75	0x04	4
76	0xf0	-16
77	0x06	6
78	0x1b	27
79	0xef	-17
80	0xca	-54
81	0x08	8
82	0x1b	27
83	0x2d	45
84	0xed	-19
85	0xc3	-61
86	0x16	22
87	0x25	37
88	0xfb	-5
89	0xef	-17
90	0xf2	-14
91	0x0b	11
92	0xff	-1
93	0xe8	-24
94	0xe7	-25
95	0x29	41
96	0x0a	10
97	0xb5	-75
98	0xfd	-3
99	0x06	6
100	0xe7	-25
101	0xc3	-61
102	0x1a	26
103	0xdd	-35
104	0xa7	-89
105	0x37	55
106	0xf8	-8
107	0x31	49
108	0xc7	-57
109	0x81	-127
110	0xf9	-7
111	0x10	16
112	0x1c	28
113	0x15	21
114	0x11	17
115	0xe1	-31
116	0x16	22
117	0x01	1
118	0xda	-38
119	0xed	-19
120	0xd5	-43
121	0x03	3
122	0x1f	31
123	0xe3	-29
124	0xff	-1
125	0xfc	-4
126	0x16	22
127	0x0c	12
128	0x10	16
129	0xd5	-43
130	0xf7	-9
131	0xf0	-16
132	0x1b	27
133	0xaf	-81
134	0xc4	-60
135	0xfa	-6
136	0xe2	-30
137	0xf4	-12
138	0x0a	10
139	0x2a	42
140	0xab	-85
141	0xc9	-55
142	0xde	-34
143	0x0a	10
144	0xd5	-43
145	0xdc	-36
146	0x01	1
147	0x0c	12
148	0xf6	-10
149	0x00	0
150	0xd9	-39
151	0xd8	-40
152	0xce	-50
153	0xd7	-41
154	0xe2	-30
155	0x07	7
156	0x99	-103
157	0xee	-18
158	0xed	-19
159	0xfc	-4
160	0xf7	-9
161	0x09	9
162	0xf2	-14
163	0x08	8
164	0x13	19
165	0xca	-54
166	0xde	-34
167	0xf5	-11
168	0x13	19
169	0xa0	-96
170	0xe1	-31
171	0xdd	-35
172	0xd1	-47
173	0x1d	29
174	0xfa	-6
175	0x09	9
176	0xd6	-42
177	0xfc	-4
178	0x08	8
179	0x13	19
180	0xd8	-40
181	0xd6	-42
182	0x08	8
183	0x07	7
184	0x00	0
185	0xfb	-5
186	0xca	-54
187	0x1a	26
188	0xd4	-44
189	0xee	-18
190	0xd9	-39
191	0xf9	-7
192	0x10	16
193	0xc3	-61
194	0x0a	10
195	0x05	5
196	0xfc	-4
197	0xf3	-13
198	0x07	7
199	0xd2	-46
200	0xce	-50
201	0x36	54
202	0x0d	13
203	0x2e	46
204	0xe5	-27
205	0xa5	-91
206	0x0c	12
207	0x2b	43
208	0x39	57
209	0xf1	-15
210	0x10	16
211	0xe2	-30
212	0x25	37
213	0x1a	26
214	0xe6	-26
215	0xc9	-55
216	0xec	-20
217	0xef	-17
218	0x2b	43
219	0xe6	-26
220	0xe4	-28
221	0x01	1
222	0x10	16
223	0xcb	-53
224	0xf0	-16
225	0xe7	-25
226	0xf5	-11
227	0x04	4
228	0xde	-34
229	0xdc	-36
230	0xc1	-63
231	0xf0	-16
232	0x01	1
233	0xda	-38
234	0x09	9
235	0xf3	-13
236	0xc8	-56
237	0xf2	-14
238	0xf2	-14
239	0x11	17
240	0xfc	-4
241	0xd3	-45
242	0xfd	-3
243	0x13	19
244	0xec	-20
245	0x10	16
246	0xe6	-26
247	0xb9	-71
248	0xe3	-29
249	0xeb	-21
250	0xde	-34
251	0x10	16
252	0xd5	-43
253	0xe5	-27
254	0x00	0
255	0xd6	-42

sequential/conv2d/Conv2D i1 [32, 3, 3, 3]
0	0x24	36
1	0x8d	-115
2	0xff	-1
3	0x29	41
4	0x21	33
5	0xb5	-75
6	0xc4	-60
7	0xfd	-3
8	0x0a	10
9	0xb1	-79
10	0x05	5
11	0x84	-124
12	0x9d	-99
13	0x32	50
14	0x41	65
15	0xda	-38
16	0xdf	-33
17	0x98	-104
18	0x92	-110
19	0xbc	-68
20	0x3b	59
21	0xe8	-24
22	0x3a	58
23	0xbd	-67
24	0x54	84
25	0xf9	-7
26	0x81	-127
27	0xcb	-53
28	0xbd	-67
29	0xd2	-46
30	0x2b	43
31	0x35	53
32	0x67	103
33	0x37	55
34	0x19	25
35	0xfd	-3
36	0x8e	-114
37	0xd8	-40
38	0xdc	-36
39	0xbe	-66
40	0xfe	-2
41	0x3d	61
42	0x2d	45
43	0x60	96
44	0x69	105
45	0x84	-124
46	0xa3	-93
47	0x96	-106
48	0xcd	-51
49	0xf3	-13
50	0x00	0
51	0xf5	-11
52	0x58	88
53	0x7f	127
54	0xd6	-42
55	0x00	0
56	0xf8	-8
57	0xa7	-89
58	0xb9	-71
59	0xe1	-31
60	0xf0	-16
61	0xf1	-15
62	0xb1	-79
63	0x1e	30
64	0x4f	79
65	0x13	19
66	0xf1	-15
67	0x56	86
68	0x5c	92
69	0x81	-127
70	0x15	21
71	0xc8	-56
72	0x33	51
73	0x07	7
74	0xea	-22
75	0x1f	31
76	0x2a	42
77	0xe2	-30
78	0xcc	-52
79	0x00	0
80	0xf4	-12
81	0x27	39
82	0x6e	110
83	0xde	-34
84	0x16	22
85	0x7f	127
86	0xfe	-2
87	0xbc	-68
88	0x32	50
89	0x2c	44
90	0x1f	31
91	0x4b	75
92	0x72	114
93	0x41	65
94	0x6f	111
95	0x1d	29
96	0x3f	63
97	0xdc	-36
98	0x0e	14
99	0x07	7
100	0x0e	14
101	0xed	-19
102	0x34	52
103	0x1c	28
104	0x2f	47
105	0xe8	-24
106	0x0f	15
107	0x3b	59
108	0xf9	-7
109	0xe0	-32
110	0xb6	-74
111	0xcc	-52
112	0xae	-82
113	0xd1	-47
114	0x62	98
115	0x69	105
116	0x6f	111
117	0x0e	14
118	0x1a	26
119	0x44	68
120	0x8f	-113
121	0x81	-127
122	0xb6	-74
123	0xeb	-21
124	0xc9	-55
125	0xea	-22
126	0xf4	-12
127	0xaa	-86
128	0x08	8
129	0xef	-17
130	0xec	-20
131	0x9b	-101
132	0xad	-83
133	0xb8	-72
134	0xca	-54
135	0xde	-34
136	0xb6	-74
137	0x00	0
138	0xfc	-4
139	0xf2	-14
140	0x04	4
141	0xcd	-51
142	0xc8	-56
143	0xf6	-10
144	0xeb	-21
145	0x00	0
146	0xee	-18
147	0x22	34
148	0x5d	93
149	0x50	80
150	0x28	40
151	0x09	9
152	0x1b	27
153	0xac	-84
154	0xc2	-62
155	0xd2	-46
156	0x23	35
157	0x2f	47
158	0x03	3
159	0x8d	-115
160	0x81	-127
161	0xad	-83
162	0x4b	75
163	0x4a	74
164	0x50	80
165	0x60	96
166	0xd8	-40
167	0x3c	60
168	0x33	51
169	0x13	19
170	0x27	39
171	0x39	57
172	0xbe	-66
173	0xa0	-96
174	0x7f	127
175	0x70	112
176	0x14	20
177	0xe7	-25
178	0xa5	-91
179	0xb1	-79
180	0x09	9
181	0xb7	-73
182	0x9e	-98
183	0x32	50
184	0xfc	-4
185	0xa1	-95
186	0xbf	-65
187	0xa8	-88
188	0xa2	-94
189	0x22	34
190	0xd8	-40
191	0xea	-22
192	0x32	50
193	0xad	-83
194	0x38	56
195	0x21	33
196	0x08	8
197	0x40	64
198	0xc1	-63
199	0x8f	-113
200	0x81	-127
201	0x4e	78
202	0x47	71
203	0x26	38
204	0x48	72
205	0x88	-120
206	0x94	-108
207	0x3d	61
208	0xc8	-56
209	0x0f	15
210	0x45	69
211	0x9d	-99
212	0xc3	-61
213	0x08	8
214	0xab	-85
215	0x14	20
216	0x9e	-98
217	0x00	0
218	0xb7	-73
219	0xd8	-40
220	0xe6	-26
221	0xac	-84
222	0x10	16
223	0xf7	-9
224	0xf8	-8
225	0xd3	-45
226	0x08	8
227	0x98	-104
228	0xff	-1
229	0xd7	-41
230	0xcb	-53
231	0x3e	62
232	0x7f	127
233	0x50	80
234	0xa4	-92
235	0xe5	-27
236	0xb2	-78
237	0x32	50
238	0x78	120
239	0x71	113
240	0x16	22
241	0x77	119
242	0x0c	12
243	0x7a	122
244	0x6a	106
245	0x33	51
246	0xc0	-64
247	0xc4	-60
248	0xeb	-21
249	0xd8	-40
250	0xfa	-6
251	0xc0	-64
252	0x73	115
253	0x7f	127
254	0x20	32
255	0xe3	-29
